PayslipMax/Resources/Models/financial_data_validator_real.tflite (tflite, 151328 bytes, 4 tensors)

arith.constant f2 [256, 128]
0	0xaf44	-0.1135
1	0xad5e	-0.08386
2	0x2bc2	0.0606
3	0xaec1	-0.1055
4	0xaeeb	-0.1081
5	0xa84c	-0.03357
6	0xaed8	-0.10693
7	0xafba	-0.1207
8	0xad22	-0.0802
9	0xad6f	-0.0849
10	0x253a	0.02042
11	0xad06	-0.0785
12	0x2f61	0.1153
13	0x2cc0	0.0742
14	0xaf4a	-0.1139
15	0xad75	-0.08527
16	0x29b9	0.0447
17	0x2a17	0.04758
18	0x2e4c	0.0984
19	0xa417	-0.01598
20	0x2e18	0.0952
21	0xad81	-0.086
22	0xadd8	-0.0913
23	0xaaaf	-0.05222
24	0x2e76	0.10095
25	0x2c90	0.0713
26	0x2a3e	0.04877
27	0xadb8	-0.08936
28	0x2f27	0.11176
29	0x2c67	0.0688
30	0xacf1	-0.0772
31	0x2577	0.02135
32	0xa9fa	-0.0467
33	0xaff2	-0.12415
34	0x2ed3	0.1066
35	0xaf98	-0.11865
36	0xa572	-0.02127
37	0x2edc	0.1072
38	0xa931	-0.04056
39	0x2112	0.0099
40	0x248a	0.01773
41	0x2b7e	0.05853
42	0xac38	-0.0659
43	0x299b	0.0438
44	0x2e38	0.09717
45	0xab6f	-0.05807
46	0x2e41	0.0977
47	0x2c57	0.0678
48	0x23c4	0.01517
49	0xa81d	-0.03214
50	0x2fda	0.1227
51	0xae50	-0.09863
52	0x2d89	0.0865
53	0xafb2	-0.12024
54	0x2e88	0.10205
55	0x2c5c	0.0681
56	0x29f7	0.0466
57	0xa3b0	-0.015015
58	0xaa9e	-0.0517
59	0xaf03	-0.10956
60	0x2bd5	0.0612
61	0xad6d	-0.0848
62	0xa74d	-0.02852
63	0xaa1c	-0.04773
64	0x2dbc	0.0896
65	0xaf62	-0.11536
66	0xaf2d	-0.1121
67	0x236a	0.01448
68	0x2eb0	0.1045
69	0xac1f	-0.0644
70	0x2557	0.02086
71	0x2c56	0.06775
72	0xaf10	-0.11035
73	0xa472	-0.01736
74	0x27f9	0.03114
75	0xa73d	-0.02827
76	0x2831	0.03275
77	0x2826	0.0324
78	0xa89c	-0.036
79	0x2d88	0.0864
80	0x29c6	0.0451
81	0x222f	0.01208
82	0x2cec	0.0769
83	0x2d13	0.0793
84	0x9e4a	-0.00614
85	0xac8c	-0.07104
86	0x2dbf	0.0898
87	0xaefd	-0.1092
88	0xaf27	-0.11176
89	0x2be9	0.0618
90	0x26f0	0.0271
91	0xa803	-0.03134
92	0xa65e	-0.02487
93	0x2c14	0.0637
94	0xa8d6	-0.03778
95	0xacf1	-0.0772
96	0xacdc	-0.0759
97	0x2a29	0.04813
98	0xafea	-0.12366
99	0xad7f	-0.0859
100	0xacb7	-0.07367
101	0x2f72	0.11633
102	0x2b52	0.0572
103	0xab45	-0.0568
104	0x2ef5	0.1087
105	0xaa94	-0.0514
106	0xad14	-0.07935
107	0xaeb8	-0.105
108	0xae25	-0.096
109	0x2de9	0.09235
110	0x2a01	0.0469
111	0xa9b8	-0.04468
112	0x15cd	0.001416
113	0xac32	-0.06555
114	0x2566	0.02109
115	0x2e8e	0.1024
116	0x2b47	0.05685
117	0x2817	0.03195
118	0x2f38	0.1128
119	0x2c5b	0.06805
120	0xad6c	-0.0847
121	0x2f9a	0.1188
122	0x2d04	0.07837
123	0xafdb	-0.12274
124	0x2874	0.0348
125	0xa1b8	-0.01117
126	0x2e72	0.1007
127	0xaea2	-0.10364
128	0x9d88	-0.0054
129	0x2c8f	0.0712
130	0xad42	-0.08215
131	0xad7d	-0.08575
132	0xa9e0	-0.0459
133	0xadcb	-0.0905
134	0xafcb	-0.12177
135	0xa9e8	-0.04614
136	0x296c	0.04236
137	0x2aaf	0.05222
138	0x2e35	0.097
139	0xac08	-0.063
140	0xad5f	-0.0839
141	0x2e2e	0.09656
142	0xac4d	-0.0672
143	0x2fd0	0.1221
144	0x2e4a	0.09827
145	0xafce	-0.12195
146	0xa1b6	-0.011154
147	0xae86	-0.1019
148	0xadca	-0.09045
149	0x2a9f	0.05173
150	0x2ca5	0.0726
151	0x25f5	0.02327
152	0xae49	-0.0982
153	0x24d1	0.01881
154	0x26b0	0.02612
155	0x2ad4	0.05334
156	0xa774	-0.02911
157	0x18b9	0.002306
158	0x20f8	0.009705
159	0x2780	0.0293
160	0x2d4a	0.08264
161	0xaf58	-0.11475
162	0xa8bb	-0.03696
163	0xac83	-0.0705
164	0x2855	0.03384
165	0xabc8	-0.0608
166	0x1598	0.001366
167	0xacda	-0.0758
168	0xacb1	-0.0733
169	0x2dcb	0.0905
170	0xad0e	-0.079
171	0x2963	0.04208
172	0xae87	-0.102
173	0xa4a9	-0.0182
174	0x2750	0.02856
175	0x2dbb	0.08954
176	0xa8a9	-0.0364
177	0xaf5e	-0.1151
178	0x260a	0.02359
179	0x1402	0.000978
180	0xaf3f	-0.1132
181	0x250c	0.01971
182	0x2931	0.04056
183	0xaa79	-0.05057
184	0x2652	0.02469
185	0xa914	-0.03967
186	0x2b17	0.0554
187	0xac14	-0.0637
188	0xa617	-0.02379
189	0xadff	-0.0937
190	0xae66	-0.1
191	0x27f1	0.03102
192	0x211f	0.01
193	0x2f48	0.1138
194	0xa860	-0.03418
195	0x2055	0.00846
196	0xade1	-0.09186
197	0xafd9	-0.1226
198	0xaf8e	-0.11804
199	0xa581	-0.0215
200	0xae09	-0.0943
201	0x2e8a	0.1022
202	0xa833	-0.0328
203	0x9c4c	-0.004196
204	0x2252	0.012344
205	0xacf5	-0.07745
206	0x2c06	0.06287
207	0xaead	-0.1043
208	0xaaf5	-0.05435
209	0xacb4	-0.0735
210	0x2c14	0.0637
211	0xa39a	-0.01485
212	0xa5f0	-0.0232
213	0xae29	-0.09625
214	0x251d	0.01997
215	0x9fec	-0.007736
216	0x2ba1	0.0596
217	0xa5cb	-0.02263
218	0x262d	0.02412
219	0xad6f	-0.0849
220	0x2c0e	0.06335
221	0x2bc7	0.06076
222	0xafd1	-0.12213
223	0xafec	-0.1238
224	0x2910	0.03955
225	0x28d1	0.03763
226	0xaa4b	-0.04916
227	0x2217	0.011894
228	0xaca1	-0.0723
229	0xae1f	-0.09564
230	0x28f3	0.03867
231	0xaed5	-0.10675
232	0x2d02	0.07825
233	0x2b11	0.0552
234	0xa6a7	-0.02599
235	0x2e7e	0.10144
236	0xafa2	-0.11926
237	0x2b2a	0.05597
238	0x2e8f	0.1025
239	0xa935	-0.04068
240	0x2e0a	0.09436
241	0x2dbc	0.0896
242	0x9f45	-0.0071
243	0x2b4b	0.05698
244	0xac87	-0.07074
245	0xacca	-0.0748
246	0xae5c	-0.09937
247	0x2f5a	0.11487
248	0xa8e1	-0.03812
249	0x2fa5	0.11945
250	0xa9d2	-0.04547
251	0xa757	-0.02867
252	0x9e10	-0.00592
253	0xad03	-0.0783
254	0xaa85	-0.05093
255	0x2925	0.0402

arith.constant1 f2 [128, 256]
0	0x2e3c	0.0974
1	0xacd5	-0.0755
2	0x2d9c	0.08765
3	0x2192	0.01088
4	0xafc4	-0.12134
5	0x2d7d	0.08575
6	0x2e4d	0.09845
7	0x2a70	0.0503
8	0xa274	-0.0126
9	0xadf7	-0.0932
10	0x2e05	0.09406
11	0x2bb9	0.06033
12	0xabc1	-0.06058
13	0xac0d	-0.0633
14	0xaf41	-0.11334
15	0x2cd2	0.0753
16	0xad4a	-0.08264
17	0xae72	-0.1007
18	0xab98	-0.05933
19	0x2fa8	0.1196
20	0xaee8	-0.1079
21	0xaf4b	-0.11395
22	0xa90e	-0.0395
23	0x2980	0.04297
24	0x197f	0.002684
25	0xa4f2	-0.01932
26	0xa363	-0.01443
27	0xa962	-0.04205
28	0x2cf0	0.07715
29	0x2292	0.01283
30	0xaf47	-0.1137
31	0x29f3	0.04648
32	0x2f0f	0.1103
33	0x2cf9	0.0777
34	0xa115	-0.009926
35	0xae47	-0.0981
36	0x25c5	0.02254
37	0xaced	-0.07697
38	0x280f	0.0317
39	0x2cd1	0.07526
40	0x2f13	0.11053
41	0x2836	0.0329
42	0xaf63	-0.1154
43	0xa217	-0.011894
44	0x25a0	0.02197
45	0xa5d7	-0.02281
46	0x2d5a	0.0836
47	0x16a0	0.001617
48	0xaa3c	-0.0487
49	0xa4fc	-0.01947
50	0x9541	-0.001283
51	0xacf3	-0.07733
52	0x263f	0.0244
53	0xaa24	-0.04797
54	0x9d18	-0.004974
55	0xaa28	-0.0481
56	0xafce	-0.12195
57	0x2b9b	0.05942
58	0xac8e	-0.07117
59	0x2c6f	0.0693
60	0x2dd2	0.09094
61	0x2374	0.01456
62	0xaf55	-0.11456
63	0x2152	0.01039
64	0xab18	-0.05542
65	0x2fe1	0.1231
66	0xa753	-0.02861
67	0x2dca	0.09045
68	0x2d8d	0.08673
69	0xaa92	-0.05133
70	0xa9db	-0.04575
71	0x2d07	0.07855
72	0xa1b8	-0.01117
73	0xaab5	-0.0524
74	0x280d	0.03165
75	0xafc5	-0.1214
76	0xaee0	-0.1074
77	0xa6b3	-0.02617
78	0x2312	0.01381
79	0xada2	-0.088
80	0x2ede	0.1073
81	0xadc8	-0.09033
82	0xae53	-0.0988
83	0x241a	0.01602
84	0x28c1	0.03714
85	0x20db	0.00948
86	0x2e52	0.09875
87	0x2cc9	0.07477
88	0x28c0	0.0371
89	0x2a80	0.05078
90	0xac9f	-0.0722
91	0xae9b	-0.1032
92	0xa79f	-0.02977
93	0x2fd8	0.12256
94	0xac4c	-0.06714
95	0x2344	0.01419
96	0xad08	-0.0786
97	0xacbe	-0.0741
98	0xa959	-0.04178
99	0x2d49	0.0826
100	0x2860	0.03418
101	0xac5e	-0.06824
102	0x2a8b	0.05112
103	0x2c75	0.06964
104	0xae70	-0.1006
105	0x9f1f	-0.006954
106	0x2e6b	0.1003
107	0xa85a	-0.034
108	0x2da4	0.08813
109	0x21ff	0.01171
110	0xa920	-0.04004
111	0xaa99	-0.05154
112	0xaf8a	-0.1178
113	0x2d11	0.07916
114	0xa563	-0.02104
115	0xaba3	-0.05966
116	0x2e04	0.094
117	0xaf76	-0.1166
118	0xaf51	-0.1143
119	0xa28b	-0.01278
120	0x2f5f	0.1152
121	0x21e7	0.01153
122	0xa927	-0.04025
123	0x9ecc	-0.006638
124	0x2c66	0.0687
125	0xa7d5	-0.0306
126	0x2f10	0.11035
127	0xaaeb	-0.05405
128	0x204d	0.0084
129	0x25cd	0.02266
130	0x299e	0.04388
131	0xac75	-0.06964
132	0xacfc	-0.0779
133	0x29ae	0.04437
134	0x2e69	0.10016
135	0x21fa	0.01167
136	0x2ce5	0.0765
137	0xac8e	-0.07117
138	0x2fa7	0.11957
139	0xa8c4	-0.03723
140	0xa860	-0.03418
141	0xaf1c	-0.1111
142	0xad6e	-0.08484
143	0x2b98	0.05933
144	0xae80	-0.10156
145	0x2f02	0.1095
146	0x2cf7	0.0776
147	0x2e25	0.096
148	0x2da3	0.0881
149	0x253d	0.02046
150	0x2892	0.0357
151	0xad70	-0.08496
152	0x2e53	0.0988
153	0x2eb8	0.105
154	0xaeb1	-0.10455
155	0xae45	-0.09796
156	0xafaa	-0.11975
157	0x9cdb	-0.00474
158	0x2a71	0.05032
159	0x2d90	0.0869
160	0x23dd	0.01536
161	0xa590	-0.02173
162	0x28ed	0.03848
163	0xaaf2	-0.05426
164	0x2f93	0.11835
165	0x2b53	0.05722
166	0xa8e7	-0.0383
167	0xaa7e	-0.05072
168	0xa85a	-0.034
169	0xae7e	-0.10144
170	0xab7c	-0.05847
171	0x2a24	0.04797
172	0xaa8b	-0.05112
173	0xaa29	-0.04813
174	0xa77b	-0.02922
175	0xaa86	-0.05096
176	0x2e4c	0.0984
177	0xab09	-0.05496
178	0x2574	0.0213
179	0x2f5e	0.1151
180	0x287b	0.035
181	0x96e7	-0.001685
182	0xa2f3	-0.01357
183	0xadb0	-0.08887
184	0x2b73	0.0582
185	0x27fd	0.0312
186	0x2fd9	0.1226
187	0x25d9	0.02284
188	0x9aac	-0.003258
189	0x1b7e	0.003658
190	0xacb0	-0.07324
191	0xacf6	-0.0775
192	0x2c79	0.0699
193	0x2d5d	0.0838
194	0xa835	-0.03287
195	0x2a43	0.04892
196	0x2972	0.04254
197	0x216f	0.01061
198	0xa598	-0.02185
199	0xa68d	-0.02559
200	0x2ea2	0.10364
201	0x2ae6	0.0539
202	0xa733	-0.02812
203	0xa44b	-0.01677
204	0x2e23	0.0959
205	0x298e	0.0434
206	0x2c11	0.06354
207	0x24af	0.0183
208	0xa625	-0.024
209	0x2536	0.02036
210	0x2e26	0.09607
211	0x2d62	0.0841
212	0xade3	-0.092
213	0xae30	-0.0967
214	0x1a1a	0.00298
215	0x2732	0.0281
216	0x2abb	0.05258
217	0xae3a	-0.0973
218	0x2f66	0.1156
219	0x2c63	0.06854
220	0xaa21	-0.04788
221	0xaf5e	-0.1151
222	0xa0bb	-0.00924
223	0xaeb9	-0.10504
224	0xab28	-0.0559
225	0xae77	-0.101
226	0xac1e	-0.06433
227	0x2d76	0.0853
228	0x2e26	0.09607
229	0x299c	0.04382
230	0x2c06	0.06287
231	0x2d14	0.07935
232	0xac9e	-0.07214
233	0x2e7c	0.1013
234	0x2fe4	0.1233
235	0xad2b	-0.08075
236	0x2c81	0.0704
237	0x2843	0.0333
238	0xa4f5	-0.01936
239	0xa2b0	-0.01306
240	0xac65	-0.06866
241	0x2c62	0.0685
242	0x2dbd	0.08966
243	0xa541	-0.02052
244	0x221b	0.011925
245	0xacbb	-0.0739
246	0x27a0	0.02979
247	0xa897	-0.03586
248	0xae15	-0.09503
249	0xad79	-0.0855
250	0xad5b	-0.0837
251	0x95f8	-0.001457
252	0xac68	-0.06885
253	0xaa46	-0.049
254	0x2880	0.03516
255	0xaec9	-0.106

arith.constant2 f2 [64, 128]
0	0xb194	-0.1743
1	0x307e	0.1404
2	0x2be5	0.06168
3	0x29ee	0.04633
4	0xadf6	-0.09314
5	0x1806	0.001965
6	0x2ba3	0.05966
7	0xb131	-0.1622
8	0xb007	-0.1259
9	0x3057	0.1356
10	0x2966	0.04218
11	0x2df6	0.09314
12	0xaee0	-0.1074
13	0x2a8b	0.05112
14	0xb15e	-0.1677
15	0xad28	-0.08057
16	0xb043	-0.1332
17	0x9b0d	-0.003443
18	0x2a54	0.04944
19	0x30ac	0.146
20	0x2187	0.010796
21	0xb155	-0.1666
22	0xa7ab	-0.02995
23	0x29df	0.04587
24	0x2ff5	0.1243
25	0xad9a	-0.0875
26	0x2461	0.0171
27	0x3049	0.1339
28	0xb18d	-0.1735
29	0xb050	-0.1348
30	0x9de0	-0.005737
31	0x3138	0.1631
32	0x2ab0	0.05225
33	0xb13f	-0.164
34	0xa8e9	-0.03836
35	0x30b8	0.1475
36	0x2511	0.01979
37	0x300c	0.1265
38	0xb19c	-0.1753
39	0x251a	0.01993
40	0x312b	0.1615
41	0x28dd	0.038
42	0xabcc	-0.0609
43	0x312a	0.1614
44	0x299b	0.0438
45	0x2876	0.03485
46	0x3185	0.1725
47	0x2cb7	0.07367
48	0xa552	-0.02078
49	0x2d06	0.0785
50	0xb0a7	-0.1454
51	0xb013	-0.1273
52	0xa479	-0.01747
53	0xaab2	-0.0523
54	0x313d	0.1637
55	0xa925	-0.0402
56	0xb194	-0.1743
57	0x2f08	0.10986
58	0xb14a	-0.1653
59	0xacd3	-0.0754
60	0x2755	0.02864
61	0xa80a	-0.03156
62	0x30fe	0.156
63	0xac51	-0.06744
64	0x302f	0.1307
65	0xadab	-0.08856
66	0xb151	-0.1661
67	0x296f	0.04245
68	0x2ea5	0.1038
69	0x2a82	0.05084
70	0x2d71	0.085
71	0x28b6	0.0368
72	0xb171	-0.17
73	0xb12e	-0.1619
74	0x2da4	0.08813
75	0xb0f0	-0.1543
76	0x301c	0.1284
77	0x3101	0.1564
78	0xb14a	-0.1653
79	0x250f	0.01976
80	0x2e83	0.10175
81	0x2666	0.025
82	0xae8a	-0.1022
83	0xb0a3	-0.1449
84	0x2ade	0.05365
85	0xb09c	-0.144
86	0xa4e0	-0.01904
87	0xb038	-0.1318
88	0xaa2c	-0.04822
89	0x3144	0.1646
90	0x2cba	0.07385
91	0x2e5f	0.09955
92	0x2b7f	0.05856
93	0xb068	-0.1377
94	0x2365	0.01444
95	0x2c23	0.06464
96	0xb0c4	-0.1489
97	0xa9e1	-0.04593
98	0x311f	0.16
99	0x2d5f	0.0839
100	0x3047	0.1337
101	0x2d07	0.07855
102	0xb06a	-0.138
103	0xa9d4	-0.04553
104	0xaf40	-0.1133
105	0x3056	0.1355
106	0x30a6	0.1453
107	0x26b5	0.0262
108	0x2dd4	0.09106
109	0xa550	-0.02075
110	0xab24	-0.0558
111	0xb14a	-0.1653
112	0x2eae	0.1044
113	0x1ecb	0.006634
114	0x2d27	0.0805
115	0xb0d7	-0.1512
116	0xaafe	-0.05463
117	0x309a	0.1438
118	0x3122	0.1604
119	0x2c6f	0.0693
120	0x317b	0.1713
121	0xacf8	-0.07764
122	0x2f28	0.1118
123	0x2f5d	0.11505
124	0x179f	0.001861
125	0xa890	-0.03564
126	0x9a2e	-0.003017
127	0xb01d	-0.1285
128	0xa306	-0.01372
129	0xae37	-0.0971
130	0xad86	-0.0863
131	0x2ae1	0.05374
132	0x2ba3	0.05966
133	0xb097	-0.1434
134	0xac34	-0.0657
135	0x2593	0.02177
136	0x2a0f	0.04733
137	0x2e44	0.0979
138	0x2d53	0.0832
139	0x2871	0.0347
140	0xb133	-0.1625
141	0xb146	-0.1648
142	0xad60	-0.084
143	0x25c1	0.02248
144	0xb05e	-0.1365
145	0x2a8e	0.0512
146	0x25bf	0.02245
147	0x25ea	0.0231
148	0x3148	0.165
149	0x2da1	0.08795
150	0xb088	-0.1416
151	0x3009	0.1261
152	0xb020	-0.1289
153	0xaf1a	-0.11096
154	0x2eab	0.1042
155	0x2bfa	0.06232
156	0xb130	-0.1621
157	0x28fa	0.03888
158	0x244a	0.01675
159	0xa2ed	-0.01353
160	0xb17b	-0.1713
161	0xa979	-0.04276
162	0x300f	0.1268
163	0x30f9	0.1554
164	0xb12d	-0.1617
165	0x25d2	0.02274
166	0x30aa	0.1458
167	0x3015	0.1276
168	0xb119	-0.1593
169	0x313f	0.164
170	0x313c	0.1636
171	0xad28	-0.08057
172	0x2a98	0.0515
173	0x30a1	0.1447
174	0xb0a5	-0.1451
175	0x18ac	0.002281
176	0x2efd	0.1092
177	0x2bb0	0.06006
178	0x3081	0.1407
179	0xa83d	-0.0331
180	0x2e3b	0.09735
181	0x304a	0.134
182	0xa5e8	-0.02307
183	0xa7db	-0.03069
184	0x2f22	0.11145
185	0x90ee	-0.000602
186	0x2de6	0.09216
187	0xaf71	-0.1163
188	0x306f	0.1385
189	0x2aa2	0.05182
190	0x2924	0.04016
191	0xaffc	-0.12476
192	0xa516	-0.01987
193	0x303a	0.1321
194	0xaede	-0.1073
195	0xaa32	-0.0484
196	0xae83	-0.10175
197	0x3155	0.1666
198	0xb136	-0.1628
199	0x3146	0.1648
200	0x2f52	0.1144
201	0xafc7	-0.1215
202	0xa019	-0.008
203	0xb116	-0.1589
204	0x3111	0.1583
205	0x2412	0.0159
206	0xaa6d	-0.0502
207	0xa572	-0.02127
208	0x3166	0.1687
209	0xac3e	-0.0663
210	0xa402	-0.01566
211	0xaa99	-0.05154
212	0x2684	0.02545
213	0x26b2	0.02615
214	0xb000	-0.125
215	0xa684	-0.02545
216	0xab77	-0.05832
217	0xad90	-0.0869
218	0xadbc	-0.0896
219	0xae31	-0.09674
220	0xafd1	-0.12213
221	0xa79a	-0.0297
222	0xb0ae	-0.1462
223	0x2f51	0.1143
224	0xb000	-0.125
225	0xa569	-0.02113
226	0x31a7	0.1766
227	0x2cb8	0.0737
228	0x29ab	0.04428
229	0xa407	-0.01573
230	0xb0ee	-0.154
231	0xad3a	-0.08167
232	0xb19a	-0.175
233	0xab23	-0.05576
234	0xb1a7	-0.1766
235	0x2657	0.02477
236	0xadcc	-0.0906
237	0xb003	-0.1254
238	0xad3e	-0.0819
239	0x307e	0.1404
240	0x287f	0.03513
241	0x2d4d	0.0828
242	0xa7c8	-0.0304
243	0x3054	0.1353
244	0x2a00	0.04688
245	0x1cc6	0.00466
246	0x2de4	0.09204
247	0x2aa7	0.05197
248	0x314b	0.1654
249	0x3024	0.1294
250	0xac03	-0.0627
251	0x3116	0.1589
252	0xa851	-0.03372
253	0xb14a	-0.1653
254	0xb15d	-0.1676
255	0xb164	-0.1685

arith.constant3 f2 [10, 64]
0	0xb016	-0.1277
1	0xb1df	-0.1835
2	0xb0ba	-0.1477
3	0x292f	0.0405
4	0x335d	0.2301
5	0xb3a6	-0.239
6	0x3424	0.2588
7	0x2e87	0.102
8	0xa4d9	-0.01894
9	0x3383	0.2347
10	0x3393	0.2367
11	0xb27a	-0.2024
12	0xaa80	-0.05078
13	0x2e3a	0.0973
14	0x3398	0.2373
15	0x3214	0.19
16	0xb1bd	-0.1793
17	0xb38e	-0.2361
18	0x3347	0.2274
19	0x307d	0.1403
20	0x30c1	0.1486
21	0xb40f	-0.2537
22	0xb448	-0.2676
23	0xac75	-0.06964
24	0xb1c9	-0.1808
25	0xb224	-0.1919
26	0xb39d	-0.2379
27	0x3015	0.1276
28	0xa4ee	-0.01926
29	0x33a4	0.2388
30	0x21e2	0.01149
31	0xb1d0	-0.1816
32	0xa81c	-0.0321
33	0xad8d	-0.08673
34	0x313a	0.1633
35	0x32be	0.2107
36	0xa512	-0.0198
37	0x3045	0.1334
38	0x32f6	0.2175
39	0x3402	0.2505
40	0xb317	-0.2216
41	0x33af	0.2401
42	0xae6d	-0.1004
43	0xb004	-0.1255
44	0x345b	0.2722
45	0xaef2	-0.1085
46	0xb2d4	-0.2134
47	0xb18d	-0.1735
48	0xb1c8	-0.1807
49	0xb16c	-0.1694
50	0xb2e8	-0.2158
51	0x3423	0.2585
52	0x27b0	0.03003
53	0xab79	-0.05838
54	0x31d4	0.1821
55	0x344e	0.269
56	0xb115	-0.1588
57	0xb2bd	-0.2106
58	0xb2be	-0.2107
59	0xaedb	-0.1071
60	0x3253	0.1976
61	0xb452	-0.27
62	0x2c9c	0.072
63	0xacc8	-0.0747
64	0xb24b	-0.1967
65	0x31f9	0.1866
66	0xb435	-0.263
67	0xaf72	-0.11633
68	0xb483	-0.282
69	0xaeed	-0.1082
70	0xab1c	-0.05554
71	0xaef7	-0.1088
72	0xa4ca	-0.0187
73	0x2ed3	0.1066
74	0x3307	0.2196
75	0xb209	-0.1886
76	0x1f96	0.00741
77	0xb44a	-0.268
78	0x31c7	0.1805
79	0x331f	0.2225
80	0x28e0	0.0381
81	0xa990	-0.04346
82	0x3356	0.2292
83	0xa1bb	-0.01119
84	0xadd8	-0.0913
85	0x2ca6	0.07263
86	0xaf6e	-0.1161
87	0xac99	-0.07184
88	0xae4e	-0.0985
89	0xb397	-0.2372
90	0xb2c1	-0.211
91	0xad8c	-0.0867
92	0xad61	-0.08405
93	0xb1a6	-0.1765
94	0xaa2c	-0.04822
95	0xb44c	-0.2686
96	0x2ff5	0.1243
97	0xacc6	-0.0746
98	0x2a9a	0.05157
99	0x306b	0.1381
100	0xb422	-0.2583
101	0xb485	-0.2825
102	0x2393	0.01479
103	0xb31f	-0.2225
104	0x10e2	0.000596
105	0x2f73	0.1164
106	0xb1d6	-0.1824
107	0x3047	0.1337
108	0x2c8d	0.0711
109	0xb42a	-0.2603
110	0x2e3f	0.0976
111	0x1bf8	0.003891
112	0x2eaa	0.1041
113	0x326c	0.2007
114	0xb3cf	-0.244
115	0xac23	-0.06464
116	0xa81b	-0.03207
117	0x999a	-0.002735
118	0xb240	-0.1953
119	0xb19d	-0.1754
120	0x341b	0.2566
121	0x2c77	0.06976
122	0x2f9f	0.1191
123	0x3078	0.1396
124	0x3156	0.1667
125	0x3380	0.2344
126	0xa5d5	-0.02278
127	0xb04e	-0.1345
128	0xac69	-0.0689
129	0xacf4	-0.0774
130	0x2591	0.02174
131	0x2eaa	0.1041
132	0x2143	0.01028
133	0x2e06	0.0941
134	0xb202	-0.1877
135	0xb1d6	-0.1824
136	0xb229	-0.1925
137	0x32b3	0.2094
138	0xb09d	-0.1442
139	0x314c	0.1655
140	0x1c51	0.004215
141	0xae66	-0.1
142	0x32ba	0.2102
143	0xac22	-0.0646
144	0x31f9	0.1866
145	0x3202	0.1877
146	0xaf6f	-0.11615
147	0xa97d	-0.04288
148	0xadd5	-0.0911
149	0xa7af	-0.03001
150	0x2e62	0.09973
151	0x21d8	0.01141
152	0x3443	0.2664
153	0x2975	0.04263
154	0x330d	0.2203
155	0x346c	0.2764
156	0x3471	0.2776
157	0x2c1d	0.0643
158	0x9998	-0.002731
159	0x2b4b	0.05698
160	0x3465	0.2747
161	0xb2e9	-0.216
162	0xb2a2	-0.2073
163	0x2d0e	0.079
164	0x2a82	0.05084
165	0x2e9b	0.1032
166	0xa6b8	-0.02625
167	0xa9fd	-0.04678
168	0x31de	0.1833
169	0x2f82	0.1173
170	0xb425	-0.259
171	0x3456	0.271
172	0x2fb9	0.12067
173	0xb302	-0.219
174	0x3197	0.1747
175	0x33f0	0.248
176	0x343c	0.2646
177	0x31f2	0.1858
178	0xb100	-0.1562
179	0xacc2	-0.07434
180	0xb3ee	-0.2478
181	0xb2c0	-0.2109
182	0xaa69	-0.05008
183	0x30f5	0.1549
184	0xac2c	-0.0652
185	0x9e18	-0.00595
186	0x2f31	0.11237
187	0xb40f	-0.2537
188	0x32d0	0.2129
189	0xac83	-0.0705
190	0xb245	-0.1959
191	0x2453	0.01689
192	0x28cd	0.0375
193	0x2fcb	0.12177
194	0xb1ac	-0.1772
195	0xa987	-0.04318
196	0x2e00	0.09375
197	0x30d4	0.1509
198	0x2f0b	0.11005
199	0xaea4	-0.10376
200	0x20fc	0.009735
201	0x3415	0.2551
202	0x309b	0.1439
203	0x2eaf	0.10443
204	0x304a	0.134
205	0x2c52	0.0675
206	0xa0b1	-0.00916
207	0xb2d3	-0.2133
208	0x2ccf	0.07513
209	0x33c0	0.2422
210	0xa818	-0.03198
211	0xae12	-0.09485
212	0x9d06	-0.004906
213	0x329a	0.2063
214	0x2faa	0.11975
215	0xb453	-0.2703
216	0xb127	-0.161
217	0x3415	0.2551
218	0xa7a6	-0.02988
219	0xb1de	-0.1833
220	0xad0b	-0.0788
221	0xb272	-0.2014
222	0x334a	0.2278
223	0x3315	0.2213
224	0x2e49	0.0982
225	0xb32b	-0.224
226	0x308b	0.142
227	0xb044	-0.1333
228	0x30da	0.1516
229	0x328c	0.2046
230	0xb25f	-0.1991
231	0x3215	0.1901
232	0xb469	-0.2756
233	0xb249	-0.1964
234	0xa850	-0.0337
235	0xb134	-0.1626
236	0x2205	0.01176
237	0x3298	0.206
238	0xb258	-0.1982
239	0xb10f	-0.1581
240	0xb443	-0.2664
241	0xaf9c	-0.1189
242	0x2be9	0.0618
243	0x33f3	0.2484
244	0x29d7	0.04562
245	0x2439	0.0165
246	0x2de4	0.09204
247	0xa2fe	-0.01366
248	0xb31e	-0.2224
249	0x9d10	-0.004944
250	0x304a	0.134
251	0xb1eb	-0.1849
252	0xb26b	-0.2006
253	0x325c	0.1987
254	0xb00b	-0.1263
255	0xb052	-0.135
