PayslipMax/Resources/Models/financial_validator_v2_latest.tflite (tflite, 596364 bytes, 4 tensors)

arith.constant f2 [512, 256]
00000000: 19a4 242a e12c 42ad 0aa5 0e2d 2297 71a7
00000010: 8729 a62a 34a2 3da0 6aa5 abaa 48a5 ada5
00000020: 8c25 6228 05ad d4a9 9428 e627 472c 4dac
00000030: f1a8 6926 2c2d d5a5 36a0 ab28 73ad 4b28
00000040: 0822 0a2d 9c2b 14ad 4ca9 cb28 6ead bf2c
00000050: 4d28 9cab 721f 2ca3 942c 5e2c c72b 5522
00000060: ec25 ffa9 d02c eda8 0da8 29ac e5a5 d824
00000070: da25 211c a6ab c92c a9a9 6ea6 8298 c62a
00000080: 2c25 16aa 85ac 63ad 2c2c eb2b 9cab 1da8
00000090: d12a c8aa 722d 8ba9 3cad fa2c 821e df2c
000000a0: a6a6 c9a9 ffaa 3ea7 1412 0929 79ad fa29
000000b0: f7ab 492a b22a 3ca3 6d2b 002b c7a4 29ad
000000c0: ea2a 2429 182c af2c 93a9 bea8 a328 6b2c
000000d0: f3aa c52c 42aa fc1e 2c28 9c24 5429 d52a
000000e0: 9a9d d923 90a9 eaa9 619c 65a5 2e27 e529
000000f0: 1d2a 61a7 c924 47ac cea1 cb2c 32ab d128
00000100: 7097 5c2a e22a 162c 37a1 0ca8 91a6 8529
00000110: 3a27 251e b22b fa1e 64a2 192c 4718 57ac
00000120: 07ad 419e fa19 4025 342b 572d 1aab 732c
00000130: 13aa f62b 6f9e c0ac 17aa 9f1d 1c2d 0a2b
00000140: d923 30a2 dcac 3c2b 27ad e82a 4c29 92ad
00000150: 812a 49ad 31ad 44ad bea0 5eac 702b b52a
00000160: fb27 3da2 67a8 729f 3faa 281c 6ca9 d628
00000170: 3ba9 54a2 642a 1e2a f221 179d afa9 c529
00000180: c4ac 4a1f b5ac 3faa b59d eb9d b42b 329b
00000190: ca21 4229 89a9 7c9f 5ca6 ee2a c929 852a
000001a0: 57a9 46a8 6e2b 98aa 312b 52a5 f928 a829
000001b0: 0726 85aa 40a5 771f d6a4 992c 382d 2aac
000001c0: de23 682a 96ac d0ab 86ac 32ad 7aad 9f2d
000001d0: ffa4 13ac 91a8 f1a4 49a0 092c c8aa 15a5
000001e0: ad2c c527 7a2a f12c d72c 4821 a6a5 bd27
000001f0: 492a 5eac a0a7 6626 f52c b5a6 4b2b 0728
-0.016 0.04797 0.07623 -0.08215 -0.01968 0.079 -0.001741 -0.02907
0.04318 0.05194 -0.012115 -0.00828 -0.02115 -0.0521 -0.02063 -0.02217
0.02167 0.03424 -0.0784 -0.04553 0.03577 0.03085 0.06683 -0.0672
-0.0386 0.02504 0.0808 -0.02278 -0.008224 0.03647 -0.08514 0.03354
0.01178 0.07874 0.05945 -0.07935 -0.04138 0.03745 -0.08484 0.07416
0.0336 -0.05945 0.00727 -0.01401 0.07153 0.06824 0.06076 0.01237
0.02313 -0.04684 0.0752 -0.03848 -0.03165 -0.065 -0.02303 0.01892
0.02286 0.004032 -0.05975 0.07477 -0.04422 -0.02512 -0.002201 0.05292
0.0202 -0.04755 -0.0706 -0.08417 0.0652 0.06186 -0.05945 -0.03214
0.05325 -0.05298 0.0851 -0.0433 -0.0818 0.07776 0.006355 0.0761
-0.02597 -0.0452 -0.05466 -0.02829 0.000742 0.03934 -0.0855 0.0467
-0.06223 0.0491 0.0523 -0.01413 0.058 0.0547 -0.01866 -0.0806
0.05402 0.04016 0.06396 0.0732 -0.04355 -0.03705 0.03622 0.06903
-0.0543 0.0745 -0.0489 0.00682 0.0326 0.018 0.04163 0.05338
-0.00547 0.01533 -0.04346 -0.0462 -0.004276 -0.02107 0.02805 0.04605
0.04776 -0.02882 0.01869 -0.06683 -0.01134 0.0749 -0.0562 0.03763
-0.001816 0.04968 0.05377 0.06384 -0.010185 -0.03162 -0.02565 0.04312
0.02823 0.006 0.06012 0.006813 -0.01248 0.064 0.002089 -0.0678
-0.07855 -0.006107 0.002918 0.02051 0.05627 0.08344 -0.05548 0.0695
-0.04745 0.0622 -0.006283 -0.0742 -0.04758 0.00549 0.07983 0.055
0.01533 -0.012085 -0.0759 0.05652 -0.0805 0.05396 0.04138 -0.08704
0.0508 -0.0826 -0.0811 -0.0823 -0.00926 -0.06824 0.0581 0.0524
0.03117 -0.012184 -0.0344 -0.00727 -0.0488 0.00406 -0.04236 0.03778
-0.04086 -0.01236 0.04993 0.0478 0.01161 -0.00497 -0.0444 0.04507
-0.07446 0.00712 -0.07355 -0.0488 -0.005573 -0.00578 0.06018 -0.003513
0.01131 0.04108 -0.04324 -0.00731 -0.02484 0.05414 0.0452 0.05093
-0.04172 -0.0334 0.05804 -0.0515 0.05618 -0.02078 0.03885 0.0442
0.02354 -0.05093 -0.02051 0.00729 -0.01889 0.07184 0.08154 -0.06506
0.015366 0.05005 -0.07166 -0.06104 -0.0707 -0.0812 -0.0856 0.0878
-0.01952 -0.06366 -0.03568 -0.0193 -0.00837 0.06305 -0.05298 -0.01985
0.07306 0.03035 0.0506 0.0772 0.0756 0.010315 -0.02206 0.03023
0.0491 -0.06824 -0.02979 0.025 0.07745 -0.0262 0.05698 0.03146

arith.constant1 f2 [15, 128]
00000000: 8232 bfb1 61a2 7e26 8632 e3ac f6a3 2f29
00000010: a9a6 ca2c f5b0 53a9 a028 0daa 472e 64a8
00000020: 4a2c 18b2 592d 7b27 ad2f 73b0 7d32 682a
00000030: d231 de31 90a5 45a5 312f f3b0 9131 52ad
00000040: 15a9 022f 1832 c42c 63ad d7a1 0da8 c3b1
00000050: c8b0 5330 fbb1 8230 adb0 1532 222d dd2c
00000060: d5a5 0eb1 52b0 c22e b430 b830 ef28 fcac
00000070: 6ab2 249f c22c 4e2b 1cb0 be2c 94ab d029
00000080: 58ad 15ad b329 e428 52a6 e6ac 0d30 1731
00000090: 5fb0 b1b0 3f30 51ae 8f31 e5b1 5aaf b2b0
000000a0: ffb1 0eb1 d0a3 88a4 e92f e7a1 1f25 45b2
000000b0: 2032 ecb1 fd2d 0d30 e331 a0ab e32f 1ca8
000000c0: 4e2d dbaf c9a8 b12f 3c27 49ae 5531 772e
000000d0: 10a8 9729 6bb1 a096 41b1 f1ac e631 b5ad
000000e0: 17b1 419d 80a0 09a3 80a6 f228 5b25 98a8
000000f0: a120 e5ab 98a4 dbb1 702c 762d 2bb1 c0ad
00000100: 0b2c 4d32 ee2c 0131 3524 fe21 8031 a224
00000110: 1a2c f5b1 2eb2 3eb0 4db1 fca8 f92f d2b1
00000120: c831 de2e 6230 4b2c 362e 92a8 1ab0 902e
00000130: b9af e02a a131 032b 862d 25af 5030 d82b
00000140: eb17 2696 6eb1 3822 4331 6332 522b 1a2d
00000150: 682f 2c1c 83ac 0b32 5032 b630 ed2c 3831
00000160: b1a9 b8a7 249a fe2d 84a0 3a2e 9caf 43af
00000170: 8d27 feaf c72d d231 5caf 31b1 48b2 1aae
00000180: 8b32 7e2c 62af bc2d 412e 12b1 05b2 bcaf
00000190: aeb1 23aa 90ae 81ac 5f2f 6e2d 4ca0 d829
000001a0: b929 7831 e02c c030 ef2e c2ac 48ac 4cb1
000001b0: d931 4429 1fae a0ad 12b1 5232 91aa 1430
000001c0: 79b2 8d2d f4a3 212b f32c 3731 181c 5d2f
000001d0: 5b32 61aa 6d32 8db1 8524 6ab1 08a9 2131
000001e0: 642e 56b1 c4a9 4323 8cae 1932 49b0 19b2
000001f0: bdb0 3c30 fd2f eb1b 9fb0 83ad c329 98b0
0.2034 -0.1796 -0.01246 0.02536 0.2039 -0.07635 -0.01555 0.0405
-0.02602 0.0748 -0.1549 -0.0416 0.03613 -0.04727 0.0981 -0.0343
0.067 -0.1904 0.08356 0.02922 0.11993 -0.139 0.2028 0.05005
0.1819 0.1833 -0.02173 -0.02058 0.11237 -0.1547 0.174 -0.0831
-0.0397 0.1095 0.1904 0.07446 -0.08417 -0.011406 -0.03165 -0.18
-0.1494 0.1351 -0.1869 0.1409 -0.1461 0.1901 0.0802 0.076
-0.02278 -0.158 -0.135 0.1056 0.147 0.1475 0.03854 -0.0779
-0.2004 -0.006973 0.07434 0.05707 -0.1284 0.0741 -0.0592 0.0454
-0.0835 -0.0794 0.04453 0.0382 -0.02469 -0.07654 0.1266 0.159
-0.1366 -0.1466 0.1327 -0.0987 0.1737 -0.1842 -0.11487 -0.1467
-0.1874 -0.158 -0.01526 -0.0177 0.1236 -0.01153 0.02 -0.1959
0.1914 -0.185 0.09357 0.1266 0.184 -0.05957 0.1232 -0.0321
0.0829 -0.12274 -0.03738 0.1202 0.02826 -0.0982 0.1666 0.101
-0.03174 0.04367 -0.1693 -0.001617 -0.1642 -0.0772 0.1843 -0.0892
-0.159 -0.00513 -0.00879 -0.01374 -0.02539 0.03864 0.02092 -0.0359
0.00904 -0.06168 -0.01794 -0.183 0.06934 0.0853 -0.1615 -0.08984
0.0632 0.1969 0.077 0.1564 0.01643 0.0117 0.1719 0.0181
0.0641 -0.1862 -0.1931 -0.1326 -0.1656 -0.03894 0.1246 -0.1819
0.1807 0.1073 0.137 0.0671 0.09705 -0.0357 -0.1282 0.10254
-0.12067 0.0537 0.1759 0.05478 0.0863 -0.11163 0.1348 0.06128
0.001933 -0.001501 -0.1697 0.012146 0.1644 0.1996 0.0572 0.0797
0.1157 0.004074 -0.0705 0.1888 0.1973 0.1472 0.07697 0.1631
-0.04446 -0.03015 -0.002998 0.0936 -0.00882 0.0973 -0.1189 -0.11346
0.0295 -0.1249 0.0903 0.1819 -0.115 -0.1622 -0.1963 -0.09534
0.2045 0.0702 -0.11536 0.0896 0.0977 -0.1584 -0.1881 -0.12085
-0.1775 -0.04794 -0.10254 -0.0704 0.1152 0.08484 -0.00839 0.04565
0.0447 0.1709 0.0762 0.1484 0.10834 -0.07434 -0.0669 -0.1655
0.1827 0.04114 -0.09564 -0.0879 -0.1584 0.1975 -0.0513 0.1274
-0.2023 0.08673 -0.01553 0.0557 0.07733 0.163 0.003998 0.11505
0.1986 -0.04984 0.2008 -0.1735 0.01765 -0.1692 -0.0393 0.1603
0.09985 -0.1667 -0.04504 0.01418 -0.1023 0.1906 -0.1339 -0.1906
-0.1481 0.1323 0.1248 0.003866 -0.1444 -0.0861 0.045 -0.1436

arith.constant2 f2 [256, 512]
00000000: 1dab 9f2b c626 3ead efaa 072c 46a2 5c2a
00000010: 4b27 3126 3b2d 09ad caa9 d217 4e2d aea7
00000020: 832d 8b11 4d25 952c 2a2a b916 0228 da13
00000030: b422 0a9d caa7 daab 0724 de2c 1929 1cad
00000040: 98ac 24a0 b525 7f28 2cab 0c2b 35a8 782b
00000050: 6c2a 52aa 1929 28ad 521f 202d 8720 572c
00000060: 2d2d d629 fb99 9a2c 7025 542a 161b 68ad
00000070: 92a3 6ba7 11aa 9ba9 11ab 15a7 4dad d229
00000080: 13ad 6caa 5f29 c728 9e20 13ac aaa8 efac
00000090: 71a9 4e2c 56ab 6da9 752d 4629 6125 642d
000000a0: 0ca9 cd2a 6c2c 8327 a2ad 1ea8 97a7 76a4
000000b0: f7a7 dba2 c629 3fa8 ad2c 4c2b 31a9 22ac
000000c0: 36ad b8a8 62a4 3dac 4aa3 2da5 a123 3925
000000d0: 1d20 e929 f9a9 cb28 16a2 032c 5728 042c
000000e0: 02ac 8028 fb9c dcab dd14 99ad 43aa 37ac
000000f0: 371f 0faa eea8 112d ad28 dfa7 6ea6 39ac
00000100: 4da2 d09c 0f26 e41c 632b 0523 0ba7 7b24
00000110: 1525 22ac dba5 82a9 9a11 ba22 7228 2bad
00000120: 9fab 1f29 ee28 40a1 0faa 65a4 24ac 16a3
00000130: 3aab dc26 a62c 74ab 2b29 13aa 772b a624
00000140: 3a2a 8d2c 2aa5 042c d7ab 1927 91a1 3ba9
00000150: c82a 8b21 b229 2bac 17ab 992c 54a7 fca9
00000160: b22c 662a 5422 df2b 102b 9ba5 23a2 e115
00000170: 482a cd28 982c 319d 922d bca4 bb97 5a2c
00000180: 8d25 c6a6 a926 a12c e426 d62c 352d d6a8
00000190: 402b b3a5 96a8 97aa 9ba7 97a8 ffa6 83ad
000001a0: d4a0 5d26 f3ab fe24 12ad 1e28 9128 53a5
000001b0: 5aa8 222d 54ac 01a9 3eab aca5 14ac 122a
000001c0: a92a a32b b62c 0d2d 202d 51ab 6e29 5fa9
000001d0: d22c aca4 0ba8 d5ac e3ab a428 bba0 aca8
000001e0: 53ad 79ac 9d28 6d26 9e9f bb24 16a9 b828
000001f0: a5ad 8823 7418 5fad d72b 8423 40ad 072c
-0.05557 0.05954 0.02646 -0.0819 -0.05417 0.0629 -0.01225 0.04968
0.02849 0.02419 0.0817 -0.0787 -0.04523 0.001909 0.0829 -0.03
0.0861 0.0006766 0.0207 0.0716 0.04816 0.001641 0.0313 0.0009584
0.01309 -0.00492 -0.03043 -0.06134 0.01573 0.07605 0.03983 -0.07983
-0.0718 -0.00809 0.0223 0.03513 -0.05603 0.05505 -0.03287 0.05835
0.05017 -0.04938 0.03983 -0.08057 0.00715 0.0801 0.00884 0.0678
0.0809 0.0456 -0.00292 0.0719 0.02124 0.04944 0.00346 -0.0845
-0.014786 -0.02898 -0.0474 -0.0438 -0.0552 -0.02766 -0.0828 0.04547
-0.0793 -0.05017 0.04196 0.03732 0.00902 -0.06366 -0.03644 -0.0771
-0.0425 0.06726 -0.0573 -0.0424 0.08527 0.0412 0.02101 0.0842
-0.03943 0.05313 0.0691 0.02934 -0.088 -0.03217 -0.02965 -0.01743
-0.03111 -0.01339 0.0451 -0.03317 0.07306 0.057 -0.04056 -0.0646
-0.0814 -0.03687 -0.01712 -0.0662 -0.01424 -0.02022 0.0149 0.0204
0.00803 0.04617 -0.04666 0.03745 -0.01189 0.0627 0.0339 0.06274
-0.0626 0.03516 -0.004864 -0.0614 0.001187 -0.08746 -0.04892 -0.06586
0.007046 -0.04733 -0.0385 0.07916 0.03653 -0.03075 -0.02512 -0.066
-0.01231 -0.0047 0.02367 0.004776 0.0577 0.01371 -0.02751 0.0175
0.01985 -0.0646 -0.02287 -0.04303 0.000684 0.01314 0.03473 -0.08075
-0.05954 0.04 0.0385 -0.010254 -0.04733 -0.01717 -0.0647 -0.01384
-0.05646 0.0268 0.07263 -0.05823 0.04037 -0.04745 0.05832 0.01816
0.04865 0.0711 -0.02017 0.06274 -0.06125 0.02773 -0.01087 -0.04086
0.05298 0.010826 0.0445 -0.0651 -0.0554 0.07184 -0.02863 -0.04675
0.07336 0.05 0.01236 0.0615 0.05518 -0.0219 -0.011986 0.001435
0.04907 0.0375 0.0718 -0.00507 0.08704 -0.0185 -0.001887 0.068
0.02168 -0.02646 0.02602 0.0723 0.02692 0.07556 0.08136 -0.03778
0.05664 -0.02226 -0.03583 -0.05148 -0.02971 -0.03586 -0.02733 -0.0861
-0.00943 0.02486 -0.0621 0.0195 -0.0792 0.03217 0.03568 -0.0208
-0.034 0.0802 -0.0676 -0.0391 -0.05658 -0.02216 -0.0637 0.04742
0.05203 0.05966 0.0736 0.0789 0.0801 -0.05716 0.04242 -0.04196
0.0753 -0.01825 -0.0316 -0.0755 -0.0616 0.03625 -0.00924 -0.0365
-0.0832 -0.0699 0.03604 0.0251 -0.00744 0.01848 -0.03973 0.03687
-0.0882 0.01471 0.002174 -0.0839 0.06125 0.01468 -0.08203 0.0629

arith.constant3 f2 [128, 256]
00000000: 752e 2bab b12e dd29 eba9 082f c1ad be2a
00000010: 2a2f 1e25 1b26 8faf 662d 412d e7ae 8129
00000020: deab 9022 2c9f c4af be2f b71b b029 e82c
00000030: 20ae e62b 95ad 572e 62a8 e324 1623 e8a9
00000040: 4ead 89af f92a aeab 2eae f3a8 a4ae a5af
00000050: acae 1524 d31b 4e2e 752b 5fae 03ac 9ba3
00000060: 2caf bba1 3aaf 242e 942e 6f2e dbaf c02d
00000070: 9aaa 3528 2e24 08ac 4fab 11aa df27 b4ac
00000080: 90ad 08aa 392a 432c 75ae cfae 33af 69ad
00000090: 68a8 e22e 0228 352c 25a6 fc28 aeaa 03a2
000000a0: 7c2c 65a4 352f 642a 4caf 79a0 aca7 d429
000000b0: 6d2c 91a5 e92d fcac 112a dcac 582c 1629
000000c0: 691c 9925 8c2f cb2a 6e1d 71aa ce98 522e
000000d0: 5f28 1fae 10a5 602c 142c 2622 d226 5ba5
000000e0: f62a 662d 56ae 27ac 39ab ca2f 2aac 0f2c
000000f0: 5726 1225 47a3 72ab 15ac c1aa 7dac 902a
00000100: f02d 4d2b 2fac 64a3 812f be2d da28 0b2f
00000110: 242b 8eac 59af bf2a 5296 9222 46a4 8720
00000120: 36af 77ad 462f 65af 3a2d 4f29 242e a32d
00000130: 78aa bfaa d1ac 752c 402e 899c 00ac 8e2c
00000140: beaf dca8 a02b fb2d 342a de26 272d 0b2e
00000150: 092b eb2b dda5 a0a4 2d25 781e fba3 79af
00000160: eda4 b3ac d69e 44ab 6b23 2bae c228 2e1e
00000170: 9e2c d2af 64a9 b1ae 872a 9e2c 26ac ebae
00000180: 4cae 06ad ce2f c6ad 6daf 132f dc2e 1dac
00000190: dea8 df2b 20a6 b3ae efaf f82d 4723 0fac
000001a0: f721 659f e3ad db2f 94a1 ac28 3c2c a125
000001b0: ac2e 7fa4 00ae 7fae 702e 28af d62e e42d
000001c0: 34ae 692b 1d26 c32a 372d 0aac ef2a b9a7
000001d0: 9e2f 7bac c32b 862b 562d 8eab 662d e9a1
000001e0: b5ac 2fa9 842c 8ca4 942a 13ab 902e 0b2f
000001f0: a7a1 382f 252e 33aa d8a8 9ba7 a72e 57a3
0.1009 -0.056 0.10455 0.0458 -0.04623 0.10986 -0.0899 0.05267
0.11194 0.01999 0.02385 -0.1181 0.08435 0.0821 -0.10785 0.043
-0.06146 0.01282 -0.007004 -0.12134 0.121 0.003767 0.04443 0.07666
-0.0957 0.0617 -0.0872 0.09906 -0.03424 0.01909 0.01384 -0.04614
-0.0829 -0.11774 0.05447 -0.06 -0.09656 -0.03867 -0.10376 -0.11945
-0.10425 0.01595 0.00382 0.0985 0.05826 -0.09955 -0.0627 -0.014854
-0.11206 -0.01119 -0.1129 0.09595 0.1028 0.1005 -0.12274 0.08984
-0.05157 0.03287 0.01633 -0.063 -0.0571 -0.0474 0.03075 -0.0735
-0.0869 -0.04712 0.0486 0.0666 -0.1009 -0.1064 -0.1125 -0.08453
-0.03442 0.10754 0.0313 0.06573 -0.024 0.03894 -0.0522 -0.01174
0.07007 -0.01717 0.1126 0.04993 -0.114 -0.008736 -0.02997 0.04553
0.06915 -0.02174 0.09235 -0.0779 0.0474 -0.0759 0.0679 0.03973
0.004307 0.02187 0.1179 0.05307 0.005302 -0.05032 -0.002346 0.09875
0.03415 -0.09564 -0.01978 0.06836 0.0637 0.01201 0.02664 -0.02092
0.05438 0.08435 -0.099 -0.0649 -0.05643 0.1217 -0.06506 0.0634
0.02477 0.0198 -0.01421 -0.05817 -0.0638 -0.05276 -0.0701 0.05127
0.0928 0.05704 -0.06537 -0.014435 0.11725 0.0897 0.0379 0.11005
0.0558 -0.07117 -0.1148 0.0527 -0.001543 0.01283 -0.0167 0.00884
-0.1127 -0.0854 0.11365 -0.11554 0.08167 0.04147 0.09595 0.0881
-0.05054 -0.0527 -0.07526 0.06964 0.09766 -0.00443 -0.0625 0.07117
-0.121 -0.03796 0.05957 0.09344 0.04846 0.02682 0.0805 0.0944
0.05496 0.06186 -0.0229 -0.01807 0.02022 0.006317 -0.01559 -0.11676
-0.01924 -0.0734 -0.006676 -0.05676 0.01449 -0.0964 0.03717 0.006035
0.07214 -0.1222 -0.0421 -0.10455 0.051 0.07214 -0.0648 -0.1081
-0.0984 -0.0785 0.12195 -0.0902 -0.116 0.11053 0.1072 -0.0643
-0.03802 0.0615 -0.02393 -0.1047 -0.12396 0.09326 0.01421 -0.0634
0.01165 -0.00722 -0.092 0.12274 -0.010895 0.0365 0.06616 0.02199
0.10425 -0.01756 -0.09375 -0.1015 0.1006 -0.1118 0.1068 0.09204
-0.0969 0.0579 0.02388 0.05283 0.0815 -0.0631 0.05417 -0.03017
0.119 -0.07 0.06064 0.05878 0.0834 -0.05902 0.08435 -0.01154
-0.07355 -0.0405 0.07056 -0.01776 0.0514 -0.05527 0.10254 0.11005
-0.01104 0.1128 0.096 -0.04843 -0.03784 -0.02971 0.10394 -0.014336
