ModelDownloads/conversion_workspace/converted_models/pp_structure_v2_real.tflite (tflite, 194968 bytes, 8 tensors)

arith.constant f2 [32, 3, 3, 3]
00000000: 9aaa aea9 46b0 13a6 b925 b126 e3ac 39b0
00000010: 74ad fcac 3d21 06a5 aa9d dda9 19b0 1e29
00000020: 3aab 6522 26b0 71aa 06ac e2a8 64b0 a3ae
00000030: 42a6 0aae 421b 192e 55ab b9a7 c0ad 67ad
00000040: cfa5 44ac 992b 762a 80af 8ea8 fb2d 7dae
00000050: afad 932c 4724 69a9 77ac a3a4 45af d92e
00000060: d01c 4daa eda7 a82d f3ad 0f2d b42c e0af
00000070: cd2d e71a f6a5 b82e df2e d9ac 052f 67ae
00000080: 88a4 c2af 2f27 5f26 92ac f72e 8323 e4ad
00000090: 72a7 5bb0 04aa 21a1 bc19 f1a8 a9ae 9da9
000000a0: 202f 88a9 9ca0 482d 4b2a 3527 7125 7baf
000000b0: c9ae 13ad fc27 e4a6 6ead 2b20 3aaf ec2e
000000c0: cd2a be2c 0230 a82f 3130 5bac cc27 b9ae
000000d0: 7e9d 4230 311d 5723 712c 402a a928 caad
000000e0: b2a1 a12d 872e 20ac 39af 172d 9128 3630
000000f0: 5a30 9714 39a2 f829 31ab 6c26 132a 93a9
00000100: 91ad 3d30 97ad a5a2 81a8 c5a8 802d 3faf
00000110: 6120 ac2e 2aa9 de28 c72d c4ab eb1d 48b0
00000120: 4fa4 86a1 13a8 b525 3cb0 b62c fb28 fe2b
00000130: e32c 47b0 1bae 92ad abaa f5a5 8814 1327
00000140: b6a8 842c 44b0 fa2a 2129 bfae 412f 42af
00000150: f12b f12a 4030 01af a1ae bb28 4a2a 5cb0
00000160: f7af 64a9 65af fc2d 30ab 2dad 2f2e e72c
00000170: 222c 8298 442d 512a 3427 b09f f8ad 4330
00000180: ae1e 7eab 73a8 6e28 3d30 5b2d 722f 9ca5
00000190: 47aa 7628 8724 f0ae 60a7 e4a3 2f30 3f2f
000001a0: 2eaf f42c 652f 2a2e 2eab 922f e9aa 2d2d
000001b0: 522d c6af fa9e e22f 4530 87af 5dab 8baf
000001c0: 5bac c0ac ffa5 062e b1a9 792f a2ad 5f29
000001d0: 262e aa2a 902e ec2d ee25 c22c 412b aeaf
000001e0: f720 0230 13b0 232b c8a5 54af 752d 432d
000001f0: 3f30 36ac 832c 18b0 bb2e 59ad e62f 52ac
-0.05157 -0.04437 -0.1335 -0.02373 0.02235 0.02614 -0.07635 -0.132
-0.0852 -0.0779 0.01023 -0.01962 -0.00553 -0.0458 -0.128 0.03998
-0.05646 0.01249 -0.1296 -0.05032 -0.06287 -0.03815 -0.1372 -0.1037
-0.02444 -0.09436 0.003544 0.0953 -0.05728 -0.03017 -0.08984 -0.0844
-0.02269 -0.06665 0.05936 0.05048 -0.1172 -0.03558 0.09344 -0.1014
-0.0888 0.0715 0.01671 -0.04227 -0.06976 -0.01811 -0.1136 0.107
0.0047 -0.04922 -0.03096 0.0884 -0.09296 0.07904 0.0735 -0.12305
0.09064 0.00337 -0.02328 0.105 0.10736 -0.07574 0.1097 -0.10004
-0.0177 -0.1212 0.02806 0.02489 -0.0714 0.1088 0.01467 -0.09204
-0.02908 -0.1361 -0.047 -0.01002 0.0028 -0.0386 -0.10406 -0.04385
0.1113 -0.0432 -0.009 0.0825 0.04916 0.02815 0.02126 -0.1169
-0.106 -0.0793 0.03119 -0.02692 -0.08484 0.00814 -0.1129 0.10815
0.05313 0.0741 0.1252 0.1196 0.131 -0.06805 0.03046 -0.10504
-0.005363 0.133 0.00507 0.014336 0.0694 0.04883 0.0364 -0.09045
-0.01112 0.08795 0.102 -0.06445 -0.11285 0.0795 0.03568 0.1316
0.136 0.001121 -0.01215 0.04663 -0.05618 0.02509 0.04745 -0.04355
-0.087 0.1324 -0.08734 -0.01298 -0.0352 -0.03726 0.08594 -0.1132
0.00855 0.10425 -0.04034 0.03802 0.0903 -0.06067 0.00578 -0.1338
-0.01683 -0.01079 -0.03183 0.0223 -0.1323 0.0736 0.0389 0.06244
0.07635 -0.1337 -0.0954 -0.08704 -0.0521 -0.02327 0.001106 0.02763
-0.0368 0.07056 -0.1333 0.0545 0.04007 -0.1054 0.11334 -0.1134
0.06204 0.05423 0.1328 -0.10944 -0.1036 0.03696 0.04913 -0.1362
-0.12445 -0.0421 -0.11554 0.0935 -0.05615 -0.0809 0.0966 0.0766
0.0646 -0.002201 0.0823 0.04935 0.02814 -0.007507 -0.09326 0.1332
0.006523 -0.05853 -0.03476 0.0346 0.1324 0.0837 0.11633 -0.02191
-0.04904 0.03485 0.01768 -0.1084 -0.02881 -0.01541 0.1307 0.1132
-0.1122 0.0774 0.11554 0.0963 -0.0561 0.1183 -0.054 0.0809
0.0831 -0.12146 -0.006813 0.12317 0.1334 -0.1176 -0.05753 -0.11786
-0.06805 -0.0742 -0.02342 0.0941 -0.04446 0.11676 -0.088 0.04196
0.09607 0.05206 0.10254 0.0925 0.02316 0.07434 0.05667 -0.12
0.0097 0.1252 -0.1273 0.05576 -0.02258 -0.1145 0.08527 0.0822
0.1327 -0.0658 0.0705 -0.1279 0.10516 -0.08356 0.1234 -0.0675

arith.constant1 f2 [64]
00000000: 0000 0000 0000 0000 0000 0000 0000 0000
00000010: 0000 0000 0000 0000 0000 0000 0000 0000
00000020: 0000 0000 0000 0000 0000 0000 0000 0000
00000030: 0000 0000 0000 0000 0000 0000 0000 0000
00000040: 0000 0000 0000 0000 0000 0000 0000 0000
00000050: 0000 0000 0000 0000 0000 0000 0000 0000
00000060: 0000 0000 0000 0000 0000 0000 0000 0000
00000070: 0000 0000 0000 0000 0000 0000 0000 0000
0.0 0.0 0.0 0.0 0.0 0.0 0.0 0.0
0.0 0.0 0.0 0.0 0.0 0.0 0.0 0.0
0.0 0.0 0.0 0.0 0.0 0.0 0.0 0.0
0.0 0.0 0.0 0.0 0.0 0.0 0.0 0.0
0.0 0.0 0.0 0.0 0.0 0.0 0.0 0.0
0.0 0.0 0.0 0.0 0.0 0.0 0.0 0.0
0.0 0.0 0.0 0.0 0.0 0.0 0.0 0.0
0.0 0.0 0.0 0.0 0.0 0.0 0.0 0.0

arith.constant12 f2 [32]
00000000: 0000 0000 0000 0000 0000 0000 0000 0000
00000010: 0000 0000 0000 0000 0000 0000 0000 0000
00000020: 0000 0000 0000 0000 0000 0000 0000 0000
00000030: 0000 0000 0000 0000 0000 0000 0000 0000
0.0 0.0 0.0 0.0 0.0 0.0 0.0 0.0
0.0 0.0 0.0 0.0 0.0 0.0 0.0 0.0
0.0 0.0 0.0 0.0 0.0 0.0 0.0 0.0
0.0 0.0 0.0 0.0 0.0 0.0 0.0 0.0

arith.constant13 f2 [128]
00000000: 0000 0000 0000 0000 0000 0000 0000 0000
00000010: 0000 0000 0000 0000 0000 0000 0000 0000
00000020: 0000 0000 0000 0000 0000 0000 0000 0000
00000030: 0000 0000 0000 0000 0000 0000 0000 0000
00000040: 0000 0000 0000 0000 0000 0000 0000 0000
00000050: 0000 0000 0000 0000 0000 0000 0000 0000
00000060: 0000 0000 0000 0000 0000 0000 0000 0000
00000070: 0000 0000 0000 0000 0000 0000 0000 0000
00000080: 0000 0000 0000 0000 0000 0000 0000 0000
00000090: 0000 0000 0000 0000 0000 0000 0000 0000
000000a0: 0000 0000 0000 0000 0000 0000 0000 0000
000000b0: 0000 0000 0000 0000 0000 0000 0000 0000
000000c0: 0000 0000 0000 0000 0000 0000 0000 0000
000000d0: 0000 0000 0000 0000 0000 0000 0000 0000
000000e0: 0000 0000 0000 0000 0000 0000 0000 0000
000000f0: 0000 0000 0000 0000 0000 0000 0000 0000
0.0 0.0 0.0 0.0 0.0 0.0 0.0 0.0
0.0 0.0 0.0 0.0 0.0 0.0 0.0 0.0
0.0 0.0 0.0 0.0 0.0 0.0 0.0 0.0
0.0 0.0 0.0 0.0 0.0 0.0 0.0 0.0
0.0 0.0 0.0 0.0 0.0 0.0 0.0 0.0
0.0 0.0 0.0 0.0 0.0 0.0 0.0 0.0
0.0 0.0 0.0 0.0 0.0 0.0 0.0 0.0
0.0 0.0 0.0 0.0 0.0 0.0 0.0 0.0
0.0 0.0 0.0 0.0 0.0 0.0 0.0 0.0
0.0 0.0 0.0 0.0 0.0 0.0 0.0 0.0
0.0 0.0 0.0 0.0 0.0 0.0 0.0 0.0
0.0 0.0 0.0 0.0 0.0 0.0 0.0 0.0
0.0 0.0 0.0 0.0 0.0 0.0 0.0 0.0
0.0 0.0 0.0 0.0 0.0 0.0 0.0 0.0
0.0 0.0 0.0 0.0 0.0 0.0 0.0 0.0
0.0 0.0 0.0 0.0 0.0 0.0 0.0 0.0

arith.constant14 f2 [5]
00000000: 0000 0000 0000 0000 0000
0.0 0.0 0.0 0.0 0.0

arith.constant15 f2 [64, 3, 3, 32]
00000000: 7429 a12b 91a8 d8aa 422d 6928 1fab a229
00000010: 76ab e3ab c628 12aa cd2c 2d29 ffa4 0c2b
00000020: ce21 8bab 5da8 e027 5fa1 46ab 999f e5a4
00000030: 4322 54a8 64a9 eea3 a0a9 5694 3c18 852c
00000040: c828 f0a9 deab 732b f22b 272b 3fa9 802c
00000050: 56a3 7b2c 0da5 6b27 3520 0b29 732a 77ab
00000060: ceab d028 5028 6d1c 48ab a32b 1d28 1325
00000070: e319 99a8 8b24 8ca2 4da7 bbab fe2b 3928
00000080: 932c 32a4 0ba7 3cad 419e 959f 4129 d72c
00000090: 6425 a49e c6ac 69a9 c32c 7129 a527 1ba7
000000a0: b6a6 e622 09a2 362a f6a2 5724 48a7 37ac
000000b0: dbaa f1ac 94a8 f7aa 46a8 2428 942a 952c
000000c0: cb20 ed2c f6aa f027 73a9 33ac ffa0 a626
000000d0: ab28 2b2b e1a9 64a6 27ac ca9e 9a9a 0d2d
000000e0: 0128 c597 942a 7920 77a9 5baa 9a2c 6622
000000f0: da28 de21 8a2b 4c2c 212b 4b23 8829 7f29
00000100: f62c e82c 8aab 62a2 8fa4 0611 66ab d324
00000110: f5a0 5fab e72c 0316 991c 3fa1 d7ac 5f26
00000120: c2a4 7ea8 8296 cd2c 892c 4724 f6a8 632c
00000130: e5ac 53a5 e416 7ea2 a7ac 28a0 f4a6 022c
00000140: d9a7 b728 f22a 37a8 fe29 6525 1fa3 aca9
00000150: a5aa 532b 6929 022d 82a8 5ba9 d72c ef9b
00000160: 35ab 45a8 6a29 d32c 2ead 39ab 1629 48aa
00000170: e828 67aa 60a9 8aab 5ca7 2baa 1e29 b428
00000180: b7ac 53a1 bcac eaa4 472d faac c29e a529
00000190: 702c 9aa8 232c e9a6 9a2a 0aa8 48a9 1ea7
000001a0: 782c 0fac 19ac 2226 762c 7a2a 8fa9 922b
000001b0: 1eac 302b 29ac 72ab c426 3127 41ac 59ac
000001c0: 219c 3126 0a2c da2c 2b20 942c 34a9 ee24
000001d0: e496 be97 1c2c b0ab 1ba2 e4a4 902c 21ab
000001e0: a6a8 a50f 90a8 ea29 ab2c b9a9 7f2b dea5
000001f0: 18ab 3020 961d 8bab 4724 e1a7 0222 23a7
0.0426 0.0596 -0.03568 -0.05347 0.08215 0.03445 -0.05563 0.044
-0.0583 -0.0616 0.0373 -0.04742 0.075 0.04044 -0.01952 0.05505
0.01134 -0.05893 -0.0341 0.03076 -0.01049 -0.05682 -0.00742 -0.01912
0.01223 -0.0338 -0.0421 -0.01549 -0.04395 -0.001059 0.002068 0.0706
0.03735 -0.0464 -0.06146 0.0582 0.06207 0.05588 -0.041 0.0703
-0.01433 0.07 -0.01973 0.02898 0.00822 0.0394 0.05038 -0.05832
-0.06097 0.0376 0.0337 0.004322 -0.0569 0.05966 0.03214 0.01982
0.002874 -0.03592 0.01775 -0.01279 -0.02852 -0.0604 0.06244 0.033
0.0715 -0.01639 -0.02751 -0.0818 -0.006107 -0.007404 0.04105 0.0756
0.02106 -0.006485 -0.0746 -0.04227 0.0744 0.0425 0.02986 -0.02776
-0.02621 0.01347 -0.01179 0.04852 -0.013596 0.01695 -0.02844 -0.06586
-0.05356 -0.0772 -0.03577 -0.0544 -0.0334 0.03235 0.0514 0.0716
0.00936 0.07697 -0.05438 0.031 -0.04257 -0.0656 -0.00976 0.02597
0.03647 0.056 -0.04593 -0.02496 -0.0649 -0.00663 -0.003223 0.0789
0.03128 -0.001897 0.0514 0.008736 -0.0427 -0.04965 0.0719 0.0125
0.0379 0.01146 0.0589 0.06714 0.0557 0.014244 0.0432 0.04294
0.0775 0.07666 -0.0589 -0.01247 -0.0178 0.000613 -0.0578 0.01884
-0.00968 -0.0576 0.0766 0.001468 0.00449 -0.01025 -0.0756 0.02489
-0.01859 -0.0351 -0.001589 0.075 0.07086 0.01671 -0.03876 0.06854
-0.0765 -0.0208 0.001682 -0.01268 -0.0727 -0.00812 -0.02716 0.0626
-0.03065 0.03683 0.05426 -0.03293 0.0468 0.02107 -0.01391 -0.0443
-0.0519 0.05722 0.04227 0.07825 -0.03522 -0.04184 0.0756 -0.003874
-0.0563 -0.03336 0.0423 0.0754 -0.08093 -0.05643 0.03973 -0.04907
0.03833 -0.05002 -0.042 -0.0589 -0.02875 -0.0482 0.03998 0.03674
-0.07367 -0.0104 -0.074 -0.0192 0.08246 -0.07776 -0.0066 0.0441
0.06934 -0.03595 0.06464 -0.027 0.05157 -0.03156 -0.04126 -0.0278
0.0698 -0.0634 -0.064 0.02396 0.0697 0.0506 -0.04343 0.05914
-0.06433 0.05615 -0.065 -0.05817 0.02643 0.02809 -0.06647 -0.06793
-0.004032 0.02419 0.0631 0.0758 0.00814 0.07153 -0.04065 0.01926
-0.001682 -0.00189 0.0642 -0.06006 -0.011925 -0.0191 0.0713 -0.0557
-0.03632 0.0004666 -0.03564 0.0462 0.07294 -0.0447 0.05856 -0.02292
-0.05542 0.00818 0.005455 -0.05893 0.01671 -0.03078 0.011734 -0.02788

arith.constant16 f2 [128, 3, 3, 64]
00000000: 7928 93a1 949e 9c29 aaa5 0da8 79a6 3d2a
00000010: 7229 27a2 7dab 1ba3 8527 86a7 6c2a 32a1
00000020: 0c2b 1227 07a2 aea5 1721 5ea9 f026 e69f
00000030: b225 a5aa 771e 1128 2fa9 50aa bdaa ee29
00000040: d02a b8a6 5226 4329 1ba8 8028 d921 1229
00000050: 842a 771f 2920 1b27 ab0d 0726 7da4 572b
00000060: 2e27 dc25 b6a9 3227 b3a5 0aab afa3 1ea3
00000070: fa29 2423 d7aa 31ab 2524 c9a9 52ab 61a8
00000080: 36a5 18ab 431f 61a2 d328 1da8 c528 548d
00000090: 22a1 f229 dfa8 35a9 7ca9 46a9 41a5 262b
000000a0: e71e ecaa 55a8 6228 4a9d c928 7c1f 509a
000000b0: 5022 de29 7719 8b29 9fa8 f022 4f24 7129
000000c0: 9ba6 04a9 9ea2 a729 3224 3828 85a8 612b
000000d0: d1a9 d7a8 2aa9 c2a5 78a6 a829 631d cd28
000000e0: 11a8 ae93 4c18 5127 2725 9caa dfaa a8a4
000000f0: da9b 6da9 7424 029e b4a5 bb2a 99a4 3892
00000100: 1c19 3529 2ca3 3d98 6b21 5a29 d921 3822
00000110: 0ba4 8728 cfa2 af21 f528 4e2a e88f 2f28
00000120: 951b 3cab 3b24 9ba8 40a4 572b 822a 1e9e
00000130: 6628 0b22 0c28 852a 882b 71a7 5824 592a
00000140: 602a a99a bfa5 789d f3a9 1ea7 5226 ab26
00000150: 4328 ea95 8626 bfa7 08a9 24a9 d2a7 87aa
00000160: 46a9 5eaa a029 8328 c5aa a429 762a 6628
00000170: aca8 7a28 5797 0123 e4a0 16a6 21a9 cc21
00000180: 0ea7 91a8 0a90 9324 2ca5 ab28 c7aa 32a8
00000190: b71a ef23 9c9a 239d d9aa 952a 87a9 d624
000001a0: b026 6d1d b529 46a6 feaa b229 6b29 55aa
000001b0: 8f25 9a1f 3dab d018 7faa c1a9 5b1c d9a9
000001c0: 7f29 fa29 e9a9 6aa1 f921 8caa 3228 b2aa
000001d0: 08aa 0d24 57a9 0720 6522 072a 24a4 71aa
000001e0: 7a1f 7128 fea7 6b27 4c28 daa1 dda8 94a5
000001f0: 5328 5a1b a4a0 4b1e d124 3e29 5822 7628
0.03494 -0.01089 -0.006424 0.04382 -0.02213 -0.03165 -0.02528 0.04874
0.04254 -0.01202 -0.0585 -0.01388 0.02937 -0.02939 0.05017 -0.01015
0.05505 0.02762 -0.01177 -0.02219 0.00994 -0.04193 0.0271 -0.007713
0.02225 -0.0519 0.006313 0.03177 -0.0405 -0.04932 -0.05264 0.04633
0.05322 -0.02625 0.02469 0.0411 -0.03207 0.03516 0.01142 0.0396
0.0509 0.00729 0.008125 0.02776 0.000346 0.02354 -0.01753 0.05734
0.02805 0.02289 -0.04462 0.0281 -0.02226 -0.055 -0.01501 -0.0139
0.0467 0.01395 -0.05344 -0.05618 0.01619 -0.0452 -0.0572 -0.0342
-0.02036 -0.05542 0.00709 -0.01246 0.0377 -0.03214 0.03726 -0.0003252
-0.010025 0.04645 -0.03806 -0.04068 -0.04285 -0.0412 -0.02052 0.05585
0.00674 -0.05408 -0.03384 0.03424 -0.005165 0.03738 0.00731 -0.003082
0.01233 0.04584 0.002668 0.0433 -0.0361 0.01355 0.01683 0.0425
-0.0258 -0.03918 -0.012924 0.04416 0.01639 0.03296 -0.0353 0.05765
-0.04544 -0.0378 -0.04034 -0.02249 -0.02527 0.0442 0.00526 0.0375
-0.03177 -0.0009375 0.002098 0.02858 0.02013 -0.05164 -0.05368 -0.01819
-0.003834 -0.0424 0.0174 -0.005867 -0.02228 0.05258 -0.01796 -0.000759
0.002495 0.04068 -0.01401 -0.00207 0.01058 0.0418 0.01142 0.012146
-0.0158 0.03537 -0.0133 0.0111 0.03873 0.04926 -0.0004826 0.03268
0.003702 -0.05652 0.01653 -0.03598 -0.0166 0.05734 0.05084 -0.005974
0.03436 0.0118 0.03162 0.05093 0.05884 -0.02907 0.01697 0.0496
0.0498 -0.003252 -0.02245 -0.00534 -0.04648 -0.0278 0.02469 0.02605
0.0333 -0.001444 0.02548 -0.03026 -0.0393 -0.04016 -0.03055 -0.051
-0.0412 -0.04974 0.04395 0.03525 -0.0529 0.04407 0.05048 0.03436
-0.0365 0.03497 -0.001792 0.01368 -0.00955 -0.02377 -0.04007 0.01132
-0.02756 -0.03568 -0.000493 0.01787 -0.0202 0.03647 -0.05295 -0.03278
0.003279 0.015495 -0.003227 -0.005016 -0.0535 0.05142 -0.04318 0.01889
0.02612 0.0053 0.0446 -0.0245 -0.05463 0.0445 0.04233 -0.04947
0.02171 0.007423 -0.05655 0.00235 -0.05075 -0.04495 0.004253 -0.0457
0.04294 0.0467 -0.04617 -0.010574 0.011665 -0.05115 0.03278 -0.0523
-0.04712 0.01582 -0.04172 0.007866 0.01249 0.0471 -0.01617 -0.05032
0.0073 0.0347 -0.03122 0.02898 0.03357 -0.01143 -0.038 -0.02179
0.03378 0.00359 -0.00906 0.006145 0.01881 0.04095 0.01239 0.03485

arith.constant17 f2 [5, 1, 1, 128]
00000000: 7819 5830 42a4 8e28 74b1 9131 9d31 7b2b
00000010: 4eb1 47aa 1eae e630 f131 4db1 db23 f725
00000020: 332f 0db1 b127 7aac 8329 6829 ebb1 6cab
00000030: 2a31 d2b1 ae2e 63b1 c7b2 7b31 ab99 9230
00000040: 7ead 9a30 b630 d030 49af 3931 2c13 0930
00000050: a52c 62a8 802f ba9f 22b2 8e2a 512f 182f
00000060: 8532 3a2f 50b2 2f2d 422d 5317 ff30 05aa
00000070: 0cb2 3a26 21a2 440d d72e 7c2e c2a0 f2ad
00000080: 762b 6fa9 bdb0 e224 02b2 0baa d230 96a6
00000090: 9f31 9f2b 092a 52b2 43b0 0faf 2327 9c20
000000a0: c730 2a24 0f32 79b2 2429 fbb0 81b2 872d
000000b0: fbae 7eaf a82c 7bab 49ae e3b0 9a2f adb0
000000c0: cbb0 1ead aca8 bab2 4daf 1b2a 91b0 68af
000000d0: 3b28 d22f 16b1 062a ab30 3726 4fac f61d
000000e0: bd28 d4ad 492c 0baf 3d30 602e 58ae a4b1
000000f0: 57ae adb1 b932 2ca3 f5b0 002f a7a6 9e32
00000100: 8230 29b0 3929 3629 c62e 5432 7b2a 5b9e
00000110: db2d 3a28 162f 0ab0 a5ac 77ae 3932 5e24
00000120: 22ab c631 3731 2aaf 8aa5 e22b 8031 3cb1
00000130: 67b2 be31 c3b1 11b1 bfae 3ca9 8bad 49ac
00000140: 9a2f 7c30 792d 51a7 a132 aa1e 1eac 1f2e
00000150: 2230 ff30 8e31 f42f 6228 a42d 38ad 1331
00000160: f3b0 c12d 5327 a7b2 162f 889a 3cb0 232d
00000170: 7125 0ba9 2da5 3fab dfa9 9531 bf22 a42e
00000180: 02a4 d32c 0c2c 34b2 212f b0a4 9d2e b9ae
00000190: efaa 6bb1 b92f b229 dd2c a6a2 a7ac 36a4
000001a0: 82b2 372b dc29 edac e7ad fd28 0e30 5f31
000001b0: 0dae 88a8 dbae 9da6 0330 4cae 90a2 fa30
000001c0: 28a1 072c 58af 002a e430 75b1 012b 072b
000001d0: 99b1 dbb1 53a4 0f30 f22f 8ea8 c428 b82e
000001e0: 372c 40b1 4e2d 5e2c d51e ba2c 1eab 8330
000001f0: b92f 172c 87af 96b1 b8ac 7ea4 5bb1 bbad
0.00267 0.1357 -0.01663 0.03558 -0.1704 0.174 0.1754 0.05844
-0.1658 -0.04904 -0.0956 0.1531 0.1857 -0.1656 0.01534 0.0233
0.1125 -0.1578 0.03004 -0.06995 0.04306 0.04224 -0.1849 -0.05798
0.1614 -0.1819 0.1044 -0.1683 -0.2118 0.1713 -0.002768 0.1428
-0.0858 0.1438 0.1472 0.1504 -0.11383 0.1632 0.0008755 0.1261
0.0726 -0.03424 0.1172 -0.007545 -0.1917 0.0512 0.1143 0.11084
0.2037 0.1129 -0.1973 0.081 0.08215 0.001788 0.1561 -0.04703
-0.189 0.02432 -0.01197 0.0003214 0.1069 0.1013 -0.00929 -0.0929
0.0583 -0.04245 -0.1481 0.01907 -0.1877 -0.0472 0.1506 -0.02573
0.1757 0.05954 0.04715 -0.1975 -0.1332 -0.1103 0.02788 0.009
0.1493 0.01627 0.1893 -0.2023 0.04016 -0.1556 -0.2032 0.08636
-0.1091 -0.11707 0.07275 -0.05844 -0.0982 -0.1527 0.1188 -0.1461
-0.1498 -0.07996 -0.0365 -0.2102 -0.1141 0.0477 -0.1427 -0.1157
0.03305 0.1222 -0.1589 0.04706 0.1459 0.02428 -0.0673 0.00582
0.03702 -0.09106 0.06696 -0.11005 0.1324 0.0996 -0.0991 -0.1763
-0.09906 -0.1774 0.2101 -0.01401 -0.1549 0.1094 -0.02599 0.2068
0.1409 -0.13 0.0408 0.0407 0.10583 0.1978 0.05063 -0.006207
0.0915 0.03302 0.1107 -0.1262 -0.0726 -0.101 0.1945 0.01706
-0.05573 0.1804 0.163 -0.11194 -0.02164 0.06158 0.1719 -0.1636
-0.2001 0.1794 -0.18 -0.1583 -0.1054 -0.0409 -0.0866 -0.06696
0.1188 0.1401 0.0855 -0.02858 0.2072 0.006508 -0.06433 0.09564
0.1292 0.1561 0.1736 0.12427 0.03424 0.08813 -0.08154 0.1586
-0.1547 0.0899 0.02861 -0.2079 0.1107 -0.00319 -0.1323 0.08026
0.02126 -0.0394 -0.02022 -0.0566 -0.04587 0.1744 0.013176 0.10376
-0.01566 0.0754 0.06323 -0.1938 0.1114 -0.01831 0.10333 -0.10504
-0.05417 -0.1693 0.12067 0.0445 0.076 -0.012985 -0.0727 -0.01645
-0.2034 0.05637 0.04578 -0.07697 -0.0922 0.03897 0.1267 0.1678
-0.09454 -0.0354 -0.1071 -0.02583 0.1254 -0.0984 -0.01282 0.1555
-0.01007 0.0629 -0.11475 0.04688 0.1528 -0.1705 0.05472 0.0549
-0.1749 -0.183 -0.01689 0.1268 0.12415 -0.03558 0.03723 0.105
0.06586 -0.1641 0.0829 0.06824 0.00667 0.07385 -0.0556 0.141
0.12067 0.0639 -0.1176 -0.1746 -0.0737 -0.01755 -0.1674 -0.08954
